hw1/theta.npy (npy, 1432 bytes, 1 tensors)

array f8 [163]
000000 ee aa f3 e0 7f 18 94 3f cb bd 9e 3c 06 0b 64 bf
       0.019624708275766282 -0.002446663075680288
000010 26 7f 71 9d 75 2e 7c 3f a3 c3 f7 1b 2c f3 92 3f
       0.006880244668621837 0.018505753714581307
000020 22 f5 74 3b 25 d4 8b 3f 85 01 a6 33 47 b5 72 3f
       0.013588229062060867 0.004567411548464744
000030 80 ac f6 dc a1 a2 7f bf 70 eb dd 24 13 62 8b bf
       -0.007723457601438999 -0.01337065655001421
000040 7f 73 3c 27 5e 27 69 bf ef 91 b9 79 3b 57 98 bf
       -0.0030705298357944217 -0.023770264915940528
000050 b6 0c 94 90 cb 00 63 3f d4 49 8a 80 a7 36 70 bf
       0.0023197151064110145 -0.003958372407071715
000060 e4 ea ef 97 6b c0 7a bf 6c e7 52 b8 ef 69 77 bf
       -0.006531162535788868 -0.005716263204868937
000070 6f 04 1a 19 a2 6d 8f bf b6 9e 21 c3 ee 32 99 bf
       -0.015345827475586852 -0.02460835519778356
000080 b0 7b dd 79 24 66 93 bf 0c d3 15 2c a4 62 83 bf
       -0.018944330156383138 -0.009465487094283208
000090 f8 d1 c0 81 22 ae 5f bf d7 b9 7f 4d f0 38 8a 3f
       -0.0019336068135206146 0.012803914418296465
0000a0 71 65 ff 20 83 14 79 3f bb af 61 0a 3a 05 8b bf
       0.006123077604536107 -0.013193562928982652
0000b0 4e c6 f7 79 d7 07 94 3f 88 dc 6c 4e e0 5d 8d 3f
       0.01956116372998045 0.014339210885380163
0000c0 26 22 3c ff 4a 79 a0 3f 3e d3 64 11 8c 10 a8 3f
       0.032175391823390506 0.047001244662544725
0000d0 d8 8e b5 fd f3 48 be 3f 83 7f b2 f9 4a fe c6 3f
       0.11830067581245929 0.17963540260552344
0000e0 78 35 1c 51 14 e6 c0 bf 62 30 a0 b2 76 8d be bf
       -0.1320214649244169 -0.11934606419544161
0000f0 94 b1 17 9e 06 82 c0 bf e0 19 71 5e 32 7c 9c 3f
       -0.12896807402956922 0.027817523016233525
000100 87 ae 9a 3e b5 77 c0 bf 72 9c 25 86 69 41 c8 bf
       -0.12865319783064796 -0.18949622202055455
000110 79 8f b4 89 f4 c1 cb bf 35 22 dc 36 a2 5f ae bf
       -0.21685654376880928 -0.059323376843228116
000120 d7 5d 88 c8 43 9d a1 bf 1a ab c0 e6 f0 fe 9f 3f
       -0.034402960042082924 0.031245960315724998
000130 69 7e 60 ef 3d c3 75 3f ae b6 3a 79 c1 09 a4 3f
       0.005313150342800201 0.03913693051195587
000140 24 fb c5 64 11 02 61 bf 8b 64 6a e4 ce 2d 88 bf
       -0.0020761813850066636 -0.011806122155848328
000150 f2 b6 22 7b 6a 33 7e 3f 95 eb ef a6 45 49 8e 3f
       0.007373252812767227 0.01478819289876813
000160 ed 86 b6 66 7b 91 92 bf 53 3d 1b 4c b6 d1 98 bf
       -0.01813309492502573 -0.02423748816982869
000170 42 e4 f1 0a d2 33 8f bf 15 52 7f 09 b6 9c 79 bf
       -0.01523555847073699 -0.006252966959398272
000180 4c 92 19 46 8a 34 93 bf 8b ec c0 32 c7 ad 92 3f
       -0.018755112198407795 0.018241035912279584
000190 d5 1e b1 62 05 d0 8f bf 5a b6 0a 08 4c b4 af bf
       -0.015533487390839632 -0.061922431928320434
0001a0 8d 40 d9 8e 7f b8 9a bf 3d 94 60 ea 29 e7 a7 3f
       -0.02609443005923189 0.04668551431704102
0001b0 c4 c2 70 9c ff cb ba 3f f0 a7 00 aa 06 a1 7c bf
       0.10467526978824099 -0.0069895038905460755
0001c0 e5 a0 90 4c fb 14 76 bf ff 7c 80 f9 3a a4 70 bf
       -0.005391103398359774 -0.00406287228545854
0001d0 00 3e 3f 9e 20 75 8d 3f 73 3c b6 5c 36 a0 8c bf
       0.01438355906421318 -0.013977455810872485
0001e0 4b 6b 6b 98 b1 b4 a8 bf ee 74 6e c9 0d ae 8c bf
       -0.0482535837706651 -0.014003856382084536
0001f0 4f 48 db 93 f0 34 9f 3f 99 61 af d9 f4 4b b4 3f
       0.030475386642884236 0.07928400339677068
000200 48 fd 91 26 c8 74 8d bf 81 e2 a5 dd 2a 96 94 3f
       -0.014382899930068263 0.020104093340224786
000210 af 7f 7c a9 60 e4 93 3f b4 24 08 ac 0a 29 74 bf
       0.019425878853439545 -0.004921952903267957
000220 18 13 5c ce 25 0f a3 bf 68 f1 31 0b b4 bb a8 bf
       -0.037224942627324065 -0.04830706249865352
000230 28 7e 47 00 c9 0c 92 bf 6c 74 82 e5 70 e2 98 3f
       -0.017626896516843044 0.02430130387130129
000240 b0 da 78 43 1a e4 b9 3f ad cc ea 5f 31 a6 81 bf
       0.10113681933658358 -0.008617768993053632
000250 dc c4 17 76 50 4a 8d bf 17 2f 4d 6e 42 e3 91 bf
       -0.014301899532230093 -0.017468488676327967
000260 44 c1 16 85 20 7e 7e bf 19 4b f9 b7 17 4a 77 bf
       -0.0074445028598549325 -0.0056858946332621
000270 2a ef e3 3f 82 c9 7d 3f 89 fa 1a 5f e0 81 9f bf
       0.007272251880063677 -0.03076887684323507
000280 03 0c 5f 35 e8 5b 8f bf b0 f4 8b 76 e5 97 c1 3f
       -0.015312017563593022 0.13744800842679217
000290 5e 71 7f 95 f3 f0 a9 3f 24 af 94 05 24 30 59 3f
       0.050666439055677456 0.001537356545962384
0002a0 57 e7 ae 53 1e 32 88 bf ff 96 14 26 db 8e 86 3f
       -0.011814343384560706 0.011014663791296451
0002b0 e7 a9 7b 65 0e 4a b2 3f b9 13 f7 07 e1 f9 b4 3f
       0.07144250848401833 0.08193785137616673
0002c0 eb 71 d0 d9 4d 40 ce bf 50 36 e8 44 5c 14 c1 3f
       -0.236337405542954 0.13343385090449766
0002d0 22 6f f4 1d 42 1b e7 3f 4a 49 e4 71 0d 97 be bf
       0.722077425485143 -0.11949237852630748
0002e0 3b 87 93 89 ec 2a 9f bf 06 73 92 86 59 b3 aa bf
       -0.030437179467191582 -0.052149579694036816
0002f0 b9 91 0c ad 73 22 b2 3f 47 e5 41 c1 d5 61 82 3f
       0.07083819365340717 0.0089756679155807
000300 1d 17 62 ab 86 a8 9d 3f 6d 5d 01 fc d9 ac 95 bf
       0.02896318837203814 -0.021167188650307468
000310 1a cb ae 8d 56 5c bf bf 94 26 1f e0 b6 cd 6d 3f
       -0.12250271758129508 0.0036381313120486623
000320 e2 54 6e 1a e6 6d 7d bf d3 42 6a 8b c0 85 7f bf
       -0.007184885826878347 -0.007695915343575793
000330 e1 a1 d8 f1 e7 40 8e bf 45 01 2c bc 4b 27 85 bf
       -0.014772235935269275 -0.010328857116747367
000340 86 9f e9 41 f3 ca 5b bf b3 c7 a1 b2 c4 47 65 bf
       -0.0016963363229027541 -0.0025976983789001928
000350 14 bf 34 0a b4 86 75 3f 42 52 ce 26 b8 30 69 3f
       0.005255416184169599 0.0030749890051516024
000360 76 c6 ea 84 bd c7 85 3f 48 ef a4 a7 71 f1 b9 3f
       0.01063488065605898 0.10134039252164684
000370 f9 d2 84 2d 5f 46 81 bf ee 77 82 79 ff a0 9e bf
       -0.008435004784226307 -0.0299110334313965
000380 b0 8b 7a 82 1a 6e 8d 3f 4d 7d b9 15 28 9a 6a 3f
       0.014370162112134682 0.003247335711236288
000390 62 08 35 36 ef 2f be bf 74 df 8c 5c 9c d4 94 bf
       -0.11791892121712658 -0.020342295788594325
0003a0 d2 13 88 56 44 11 b9 3f 7e 8c 85 6d 85 01 d4 3f
       0.09791972267710428 0.31259284682727884
0003b0 59 59 1d a8 18 67 8f bf 4b b0 a0 c8 a7 70 92 bf
       -0.015333359365894127 -0.018007871265737923
0003c0 46 b6 96 41 d8 1b 95 bf 3a dd 07 0e e9 98 75 bf
       -0.020614031794755648 -0.005272779817907131
0003d0 1f 6f 67 b3 1d c8 98 bf 88 ff 8d 61 00 a0 a4 bf
       -0.02420088202948911 -0.04028321448185951
0003e0 fe 17 df 76 f2 1c a1 bf 17 89 7a af 99 e5 8a bf
       -0.033423974047352076 -0.013133240382846396
0003f0 3b 0e 09 6d 08 41 73 bf 9e e3 27 28 af 0e 22 bf
       -0.004700692094562304 -0.0001377667250179988
000400 82 25 ad ef 55 4d 33 bf d8 de b4 3e cc 89 f2 be
       -0.00029452655842428937 -1.7679474621361653e-05
000410 65 85 a8 d2 51 9c 32 bf ca 41 be 6a d4 f2 57 3f
       -0.0002839755785846914 0.0014617037186078646
000420 f3 22 21 c8 fb bf 51 3f 32 db 68 b7 1d 1b 57 3f
       0.0010833700948912866 0.0014102735709806244
000430 13 34 27 04 2d e7 5c bf bc 0e 64 a1 55 7d 3d 3f
       -0.001764100991397348 0.00044997540079825724
000440 da 3e fe e5 a6 a4 51 3f a2 e8 68 72 36 41 49 3f
       0.0010768537394802353 0.0007707134107655287
000450 97 97 3a d0 36 79 51 bf 06 cb 6f 0a 93 d8 31 3f
       -0.0010664973532725547 0.00027230825293071725
000460 53 65 31 2a 27 70 63 3f bd 8f 04 e6 54 7c 60 bf
       0.002372814649373703 -0.002012410943409619
000470 9e 81 ec 3c 4c b6 31 bf c5 d4 fa dd f4 64 55 bf
       -0.0002702652099504601 -0.0013058081894262036
000480 c9 a7 d2 25 c4 bb 1f bf 33 05 bd bf e9 ad b2 3f
       -0.00012105354967908913 0.07296620303261107
000490 fe fa eb d5 fb cf a5 3f 41 2e 83 c9 8c 07 a5 bf
       0.04260241495466309 -0.04107322654598678
0004a0 8e 06 c5 74 2d 96 6a 3f db 67 8c f4 6d 27 b3 bf
       0.003245438367373072 -0.0748203966180933
0004b0 7d c4 a8 a3 4b ac a3 bf ba dc 18 10 7c 13 bb bf
       -0.03842388508599812 -0.105766061716042
0004c0 ca bc 2e 6d 47 d3 8f bf 67 2c 92 81 ef 56 7a bf
       -0.015539701480376773 -0.006430564471098333
0004d0 38 1f 1f bc 23 10 b5 3f 86 14 76 8a 34 b2 74 3f
       0.08227752058803339 0.005052762258292215
0004e0 96 84 98 1c 5b e3 99 3f cc a3 10 d1 59 b3 bc 3f
       0.02528135644945858 0.11211167673231087
0004f0 f9 42 ea b5 1a e6 a9 3f ca d1 44 fb a0 53 9d bf
       0.05058368178027268 -0.02863933118460852
000500 f9 25 c2 70 0d 54 5b 3f cf 9c 85 e4 5e 9a a8 3f
       0.0016679888968006414 0.048052754779570266
000510 f4 4e 02 35 d4 23 c0 3f
       0.12609341228800697
