hw1/theta.npy (npy, 1432 bytes, 1 tensors)

array f8 [163]
0	0x3f6f7252a714376f	0.0038386930760969033
1	0xbf93f60ccd66e61e	-0.019493293797245063
2	0xbf9554e3e1fdd1f3	-0.02083164278833922
3	0x3f6e5b9ab36893a1	0.0037057897091181268
4	0x3f887ad501e28bfd	0.011953033561729493
5	0x3f8d0a113d7e7b95	0.014179358185911354
6	0xbf4275e113102958	-0.0005633687015927187
7	0xbf71be22dc87996c	-0.0043317186141166135
8	0x3f8b1af9a76bf18c	0.013235044881633205
9	0xbf95b8dbc801d3d9	-0.021212991793124168
10	0xbf74caa3fd92ddd5	-0.00507606562421566
11	0xbf946f877b30d468	-0.019956700223890428
12	0xbf97ad14e7779f24	-0.023121191623345486
13	0x3f5259adad2bd0b0	0.0011200138148384324
14	0x3f45c8e0bcb82122	0.0006648156499418393
15	0xbf5dba2918905f57	-0.0018144036605515967
16	0xbf878312ac674980	-0.011480470548950406
17	0x3f8adcc061a3a5d3	0.013116362552369509
18	0x3fa187003678ee3b	0.03423309960313899
19	0xbfc2b36cd535c991	-0.14610062037133933
20	0xbfbc3f8cb1fe9112	-0.11034468980375703
21	0xbfc75d6591a026b0	-0.18253774271606948
22	0xbfa4e55003853baa	-0.04081201594328061
23	0xbfa418b90a25dc8e	-0.03925112007976238
24	0xbfba5bcf1d0df4de	-0.10296339473093805
25	0xbfbf631e93bb09e7	-0.12260619265274607
26	0xbf95c1cfa886914d	-0.02124714342211691
27	0xbf7a5e0a694dbe58	-0.006437340421015479
28	0xbfc6c3faa69312bb	-0.17785580762406092
29	0xbfd196e1f8cbfa1f	-0.2748341493278605
30	0xbfd0236e6ff23353	-0.2521625607703772
31	0x3fb162eba11331a3	0.06791565592283759
32	0x3fb23c3392a3ee33	0.07123110132300141
33	0x3f86420e14185f19	0.010868177402741307
34	0xbfb5dc516a1fca80	-0.0853930362789388
35	0x3fc276bfe6f8a529	0.14424895074743319
36	0x3fc84028b2890f90	0.1894579765086033
37	0x3f90e6d17eb5673e	0.016505502089194872
38	0xbfa0103f1d240253	-0.03137395125122979
39	0xbfa36b6822b87cef	-0.03792882369838845
40	0x3fb3853be9c47ef2	0.07625174004760618
41	0x3f86cf8681d2ac1e	0.011138010823136976
42	0xbfa34b7733002752	-0.037685132003459146
43	0x3fa2ce6eaae188cc	0.03673120342206601
44	0xbfb1a1c398362b43	-0.06887457338431795
45	0x3f7b5c3d64fca7c6	0.006679763624370899
46	0x3f912fe39d523d3f	0.01678424499237718
47	0x3f81f687f9279ed2	0.00877100209341056
48	0xbf9578d8feb73229	-0.020968809649092677
49	0x3f8ca3c9d5a9891d	0.013984276612238273
50	0xbf69a06777e95d88	-0.0031282444827344692
51	0xbfab9de29bb5be5a	-0.053938943393288155
52	0xbfa679faae8f93ef	-0.043899377640435826
53	0x3fa8d60d65505291	0.0485080896543525
54	0x3fb11cdfc85cb1aa	0.06684683457996834
55	0x3f72df137ce5771b	0.0046072732205553425
56	0x3f6305ba6aa42935	0.002322067351206015
57	0xbf951d05f93ce19c	-0.020618527734059464
58	0x3f9dc0d209b02ee5	0.029055864182779074
59	0x3f5421a3b65154d8	0.0012287234069579458
60	0xbfab4ffe777c097b	-0.053344680867684034
61	0xbfa22f676c9c141a	-0.035517913826005734
62	0x3f907fab211a5035	0.016112016578134287
63	0x3fad229ff8f743c9	0.05690479196676496
64	0xbf8ed0d19e6c5f9f	-0.015046727797695612
65	0x3f857013dcec3937	0.010467677287604544
66	0x3f79b7e84264ecf3	0.006278903258414947
67	0x3f910d2f3165cc19	0.016651856794350637
68	0xbf878d7cc94ed9a8	-0.011500334638054735
69	0xbfafa52ab36f0e02	-0.06180699768404098
70	0xbf94e1d3719dc36c	-0.020392707643114447
71	0x3f718abcb347c3ab	0.004282700644112329
72	0x3fa9675c3b81f5c0	0.049616701377981354
73	0x3f82fc878c89649f	0.00927072427400538
74	0xbf3e993fb41a449c	-0.000466898014658554
75	0xbf8b76449f4eb65f	-0.01340917216461007
76	0xbf47b8eaf283b7da	-0.0007239482120249233
77	0xbf6386537ec0c569	-0.0023833876384961494
78	0x3f8b7a6adc57af43	0.013417086457557686
79	0xbfa0fca76548413d	-0.033177596200518945
80	0xbfa17d60bb1480e0	-0.034159682118344525
81	0x3fc1fbfc575022e8	0.14050249350864097
82	0xbf43b4bc9c42e128	-0.000601379485053709
83	0x3f4a1b1da24aa6af	0.0007966894814519144
84	0x3f8dd661f2f23476	0.01456905863440226
85	0xbf9b35050340cfd7	-0.02656944115024359
86	0x3f8348f2ca6109b0	0.009416481782072633
87	0x3fcf8f87f974acf2	0.24656772308785652
88	0xbfd7946d455c34c4	-0.3684342553468236
89	0xbfa56e37614371f1	-0.041856508849125514
90	0x3ff0c3201b06a61e	1.0476380401327172
91	0xbfa6eba9f709c5ab	-0.04476672306635562
92	0xbf894d1cc2ef61a1	-0.012354111384340895
93	0xbfac2fe3322de030	-0.055052852511778716
94	0x3f8da23104c4921a	0.014469511945727698
95	0x3fa4fc241549c482	0.04098618278374834
96	0x3fa005b81d671369	0.031293634022893375
97	0xbf8e09a58b050f19	-0.014666837029501377
98	0xbfb19b065f0ec1d0	-0.06877174206488879
99	0xbfa799e5cc6ed90d	-0.04609602089424145
100	0x3f78d27c344add3f	0.006060109303397453
101	0x3f84dce4f4e7df38	0.010186947559290269
102	0xbf55081da3b1f8e2	-0.001283673233757159
103	0xbf7d556dfc5d71b1	-0.007161550170931384
104	0xbf7b288132a36461	-0.006630425146988279
105	0xbf80d67df054011c	-0.008221610924465987
106	0x3f357d650205c58a	0.00032790866864392725
107	0xbf46320bac11bce6	-0.0006773526184939121
108	0x3f92f9ad31c1a6d7	0.01853056541623385
109	0x3fa85b02ed9cd349	0.0475693621687357
110	0xbf9f8925eafb1401	-0.03079661604603601
111	0xbf7037d4b50778eb	-0.003959494483267027
112	0x3fa58280cdc257f4	0.04201128493984632
113	0xbf95806ae575943d	-0.02099768662937528
114	0xbfc3dc893aef6771	-0.15516772630399658
115	0xbfc552736ed9bccb	-0.1665787020933521
116	0xbfa6e1338a250101	-0.04468689977011487
117	0x3fc9f2e7a7a38867	0.20272536931503568
118	0xbfa458422823fd16	-0.03973585834500619
119	0xbfae1160b3806211	-0.05872633162670494
120	0xbfa5e72cc0aed55e	-0.042779348870150655
121	0x3f61bd40ae2bdd73	0.0021654380119532856
122	0x3f6778e797723380	0.0028652690194292396
123	0xbf6ffe644f1daef0	-0.00390548316584282
124	0xbf90d5edc8086d03	-0.01644107373622906
125	0x3fa4b480438ec043	0.04043961357763284
126	0x3fb064864954bb91	0.06403388300235081
127	0x3f42e1071f57c00e	0.0005761418130401112
128	0xbf56668aa97578de	-0.0013672212715714542
129	0x3f65aaf50ac5a8a6	0.0026449953058334695
130	0xbf636d0af5327d71	-0.0023713315982402607
131	0x3f7765cd5cdda1d1	0.005712320516842743
132	0x3f4d96bc9d5aa659	0.0009029789896050729
133	0x3f689c0a8be177ed	0.0030040937408974872
134	0x3f2c3f136f4e4023	0.00021550285569249634
135	0xbf30dcf0c5a41892	-0.00025730970595850514
136	0x3f621b1efc072130	0.0022101979413699166
137	0x3f5b974ee4284f74	0.0016840238973871687
138	0xbf65d91122db9e53	-0.002666982144422106
139	0xbf726bf01ee2b246	-0.004497468920970754
140	0xbf749c13be61d8bf	-0.005031659244300878
141	0x3f41b3b7d15773dd	0.0005402228877603405
142	0xbf60f519656c763f	-0.002069997407842888
143	0x3f01c5f41f578ade	3.3899796033206564e-05
144	0x3f3d54fbab0fe933	0.00044757026904531093
145	0x3fb3211a43d4a800	0.07472385555288952
146	0x3fb670b21e242a21	0.08765710101958081
147	0xbfad54966bea3ad0	-0.05728597705193794
148	0x3fa9c8dfaafbc8c7	0.050360669729245404
149	0xbfb12bf6f076cc02	-0.06707709665970188
150	0x3fabccbb47d7c63c	0.054296352882272164
151	0xbfc65fa234b6b7e9	-0.174793506373532
152	0xbf5a2259a4291402	-0.001595103779110874
153	0xbfae659b572699fe	-0.059368948353313286
154	0x3fbbdc9f481419a9	0.10883517751435669
155	0xbfbb83470a85d63b	-0.10747188574699688
156	0xbfb1d675413de693	-0.0696786197931039
157	0x3f9e592962018e16	0.029636999708953914
158	0x3fba43fa00fccf53	0.10259974025831058
159	0xbf95023cdb26fab5	-0.020516348720543493
160	0x3f72fa9e0b980808	0.00463353859368177
161	0x3fbaa90740f8691f	0.10414166771116527
162	0x3faf34dade1f219e	0.06095012628026385
