hw1/theta.npy (npy, 1432 bytes, 1 tensors)

array f8 [163]
00000000: 1a80 b0a0 8b74 bcbf a906 191f f152 703f
00000010: 1063 09a8 00e2 b03f f225 a32b 8e9c ba3f
00000020: d264 18de c49f afbf 98aa baa3 e77d 7fbf
00000030: af6f 4299 37bf 67bf fcb8 34a9 1a8b a33f
00000040: 4974 d936 d2cc aabf cc75 f5d3 2eb6 a1bf
00000050: 34c2 8526 295a a0bf f9ee e53c ee16 703f
00000060: 8871 da9b 33c1 bc3f c31c 02fd 2340 86bf
00000070: 72d3 f48b 5b27 bf3f 4c9c fc5f 804a a43f
00000080: a18c 3f43 f72d be3f 4e56 29b8 bcee c53f
00000090: eb13 708b de3b d93f 09b7 4b93 3383 e5bf
000000a0: cd69 9f36 20b7 ddbf c530 d961 66c2 d1bf
000000b0: 288b c10f dcdf e6bf f4c8 8dec a445 e8bf
000000c0: e213 6133 a807 b7bf 0c56 9304 dfc1 cdbf
000000d0: 5ffe 5489 ca8c c83f 198c a513 6a63 bfbf
000000e0: 0224 029b 1a05 ecbf 459a decb 5aac dcbf
000000f0: 7812 7182 8d9b d33f 8814 99c7 cba1 f0bf
00000100: c653 4b77 85a6 ddbf 5735 1d73 ea71 ea3f
00000110: 8366 2712 6ceb dd3f 7c02 547e 4d36 f03f
00000120: adb3 4ae0 d72e d13f 18bd 5da0 6b2e c03f
00000130: 2f85 cde5 234c c03f abe2 3867 1d75 a83f
00000140: afcc 4855 500f a8bf 55b7 4cf3 ba25 ca3f
00000150: 5d97 d079 ba4f aa3f f2f4 ad5a c066 bbbf
00000160: 1757 366f efdc bbbf b93d cb58 e652 b63f
00000170: e1e5 3edf 7e5b babf b247 251d f60c adbf
00000180: 9b56 cf0d 4fef b03f d638 0061 b376 b23f
00000190: 2223 6936 0fd9 c73f 7e7a 66bb 0c41 823f
000001a0: 6393 3595 d9a7 c5bf 9fa2 9d78 7c84 513f
000001b0: b6cc 8ff0 4cd4 9b3f e4a4 0af0 68fc c0bf
000001c0: 4f29 1d89 40e2 bdbf d487 3ef6 c745 b03f
000001d0: 3134 58d4 279d a9bf f1b9 9ffe 62f0 c93f
000001e0: 18e9 3575 9ea4 b63f 65e2 092d 9315 c6bf
000001f0: 730d 5d70 afc6 acbf e8e9 0c05 33b2 bc3f
00000200: 2da8 48bc 8f61 913f b865 7c41 5695 ae3f
00000210: e90a 0baf 4974 b6bf d382 bc04 c9a2 c0bf
00000220: f1f9 f50c d5a8 b43f fee1 4655 a6b6 ca3f
00000230: a913 42f1 9061 e0bf 4f87 162c 12a8 963f
00000240: 0741 9af9 fcf3 d03f 6e72 423d 2ac9 833f
00000250: 3dcc 5a38 fcf0 ca3f 2c00 cdb8 9409 c6bf
00000260: 6eb5 b6c2 f4f7 a0bf 3b25 cafe d983 85bf
00000270: 45c8 f5ac 3f18 b23f b40b dc47 a88a c8bf
00000280: 3081 1ff4 b502 92bf d615 2732 8090 e03f
00000290: 5af9 0f7a 52fc 80bf 4d43 cd0d 0314 b6bf
000002a0: 1957 bc73 51f3 a6bf 7ad5 2d25 bc63 aa3f
000002b0: d970 ad4a ccab ca3f 8238 0b32 d4b3 d53f
000002c0: 4577 602a 83f3 dcbf 5c6c 7a15 ba1b ddbf
000002d0: 6872 142f f0be e93f 7f39 a711 c0c0 ff3f
000002e0: 1d20 1621 0c35 edbf 82b2 aed1 4f11 dabf
000002f0: 1ff8 7d6b acf1 bfbf 1dd0 7f5a fc93 e0bf
00000300: 75dc 39f5 4bab f03f 6e5e 08e8 a507 f93f
00000310: 5e21 ea76 b961 fabf f9d7 e05c f254 f9bf
00000320: 88cc 814f f12a 9b3f afb0 4b9c 0c10 b0bf
00000330: 5948 746b dc99 a5bf 179d caf2 f7ae 783f
00000340: 1904 ec65 0361 8c3f 3d8a 58ff d0a4 90bf
00000350: 7b59 b13a cefd 99bf 5698 6c1f 266c 713f
00000360: d01f e942 dc24 b73f ba7c d58c d8fa c3bf
00000370: 6275 8489 9ae7 c83f 23fe 8ec9 d5b4 ae3f
00000380: 68dc 3f82 26d6 e1bf 510a cb60 e863 d9bf
00000390: 1154 69bd c707 c93f 6835 08c9 9228 f8bf
000003a0: c928 486c 614d c2bf d8a6 ebc9 960b d03f
000003b0: 145a a899 c33c b7bf 4611 359e f3b9 9ebf
000003c0: d735 6fc7 b783 c83f e6cd 3015 9926 c4bf
000003d0: fde2 8e00 4748 8cbf c707 f4ed 411e c33f
000003e0: ee3c 4d19 508a bc3f aa39 4a23 b74b d73f
000003f0: 5957 11d2 d572 d03f 93fb b3e8 9d2f 603f
00000400: a912 c624 71bd 22bf 7837 735d d2ea 9e3f
00000410: 084e 4005 334b 93bf 164c 7248 7979 8a3f
00000420: ee6a 779c 3a08 8b3f 99f7 6f21 72ca 7ebf
00000430: 1656 eeb3 164a 1f3f 48ad c152 9500 783f
00000440: 5a39 4d5f 3779 973f 8d9c 48b8 c6a2 97bf
00000450: 0a93 2bcc e429 71bf f7e7 434d e894 74bf
00000460: 8ff2 e9ad cf81 39bf 0d93 815a ab1c 92bf
00000470: 8c93 c047 6765 6dbf 0d08 5112 c04f 733f
00000480: bcbe 5d4c c849 3b3f f17f 7e20 63e5 bfbf
00000490: f247 2269 4f7c d4bf c779 8fa6 40a4 c6bf
000004a0: 9c29 cec0 e3e5 cc3f becb 1efc 6263 e53f
000004b0: 35dc 3b28 81a8 b9bf 1adc 5cb5 9e57 a13f
000004c0: 3fa1 962b f5dd dbbf 961e 6ae6 bcec d53f
000004d0: cc2c 3700 4c5d d63f c38a 6094 20fd e4bf
000004e0: 5bbc 9d79 b7f6 d0bf f8d8 9a21 6383 e23f
000004f0: b772 1f22 fc65 f0bf 1e1d 0287 1fce b7bf
00000500: 5839 2f31 d11b f53f 5a4e fbe9 fa4f d5bf
00000510: 7489 32e7 1417 6a3f
-0.11115334199030294 0.003985349541439178 0.06594852545221053 0.10395134511340823 -0.06176581584095121 -0.0076884315891826635 -0.0028987966453097517 0.03817065539839068
-0.052343911357390534 -0.03459307038677259 -0.031937871887639 0.003928118340237091 0.112323022413369 -0.010864525946330144 0.12169429938223944 0.03963090106690767
0.11788888351252293 0.1713481806970542 0.3942791330048851 -0.6722658039923043 -0.46430211385964243 -0.27749023013599255 -0.7148266132101968 -0.758501493472322
-0.08996058706641422 -0.23247897838034282 0.19179660516418814 -0.12261069278388027 -0.8756230380541867 -0.4480196944154254 0.3063691877216921 -1.03950098007161
-0.4632886567099458 0.8264057396242305 0.46749402783243726 1.013257497281443 0.26848408607002733 0.1264166386640475 0.12732361527290822 0.047768515444152136
-0.04699183503216752 0.2042764366137201 0.05138952958104313 -0.10703661168914261 -0.10883995499747488 0.08720245044536669 -0.1029586119683681 -0.056739512498679714
0.06615156256824621 0.07212372892556415 0.1863116279294213 0.008913135022166726 -0.169184873443693 0.001069184831488247 0.027177049811098107 -0.13270293923168375
-0.11673358294971091 0.06356477510283237 -0.050027126952138075 0.20264851982888346 0.08844938623034115 -0.17253341387892643 -0.056203348604436786 0.1120941054659067
0.01697372996037687 0.05973310040844687 -0.08771191142572445 -0.12996781092899443 0.08070117536951905 0.20869902767095988 -0.5119099342415342 0.02212551492778597
0.2648918569111775 0.00966103553246819 0.21047928573315913 -0.17216738723254943 -0.033141754883540084 -0.01050539311224218 0.07068250630052926 -0.19173148640410675
-0.017588465714539925 0.5176392535728904 -0.00829376635556105 -0.08624285780866821 -0.04482512033261638 0.051542167223412386 0.20836785932886562 0.33910088431446905
-0.4523628152691013 -0.45481731507761025 0.8045578879860615 1.9845581712321232 -0.9127255102366721 -0.4073066280059622 -0.12478139519041108 -0.5180646674693922
1.0418204859868443 1.5643672050263393 -1.6488585133648352 -1.5832389476831834 0.026531000592922044 -0.06274489227115752 -0.042189491383525186 0.006026238010839144
0.013856913135443393 -0.016253724656176017 -0.025382253963778006 0.004253529469485503 0.09040619500694835 -0.15609270931870417 0.19456798281400284 0.05997341237479883
-0.5573914092955308 -0.39672288372472503 0.19554993389707012 -1.5099056103529964 -0.1429864672393875 0.25070733755874874 -0.09077093602568481 -0.0300062241851873
0.19151971090324935 -0.1574279168577128 -0.013809733109029216 0.14936088675318457 0.11148548715322068 0.3639963001850456 0.2570089866106762 0.001975830474861559
-0.00014297491214789362 0.030192648843516662 -0.018841550059802287 0.012927005313292422 0.013199289226510893 -0.007517286131585887 0.00011935962264283286 0.0058599312725207756
0.022923340980292785 -0.02308187961366719 -0.004190343609228328 -0.005024821690534856 -0.0003892070798554936 -0.01768748989015294 -0.0035883919899952262 0.004714727668273977
0.00041638507933948097 -0.12459392112077673 -0.32008729235633304 -0.1768875897677857 0.22576567568132766 0.6683821605896509 -0.10022742492934429 0.03387161220455699
-0.43542222267798886 0.34257433415812366 0.34944438954398716 -0.6558993242254804 -0.2650583923013465 0.5785384804101161 -1.0248986561702347 -0.09298893972492236
1.3192912980335532 -0.3330065999009314 0.003184834314724211
