hw1/theta.npy (npy, 1432 bytes, 1 tensors)

array f8 [163]
00000000: 2fb8 e9ba c08e c9bf eb25 a666 ac1f a03f
00000010: 5c4f 0160 32c0 b43f 163a 48b2 7d5a c43f
00000020: 0034 2d48 f9bd b5bf b037 4ac8 d50f 873f
00000030: 1061 e4f9 da63 96bf 0b98 03ac ed00 ac3f
00000040: 4263 1212 f6fb 89bf 3291 1a88 464b b3bf
00000050: 277b f164 a5f7 bf3f ec5c 880a 48a4 c43f
00000060: 3edc e032 3c08 d13f 5d45 0930 1e72 c23f
00000070: c98f 3dfb 18d9 d13f 46fe 9d67 f631 c93f
00000080: 7723 6484 7fa0 d13f f1ac b87e a542 d53f
00000090: 674a 892c 071e da3f 4893 6dd2 df97 e1bf
000000a0: 8229 52dc 32d2 d4bf 1b01 1070 c1a7 c3bf
000000b0: 3397 a7ef 9d3a e2bf 9079 4fa5 8357 e4bf
000000c0: ff4d 8047 cf8b ac3f 93e9 4ec2 da59 b8bf
000000d0: f051 e3f2 eeae d43f 976d 1a5c 1f1f c8bf
000000e0: 22f1 e14a 1879 e6bf 888b c543 865d d1bf
000000f0: f61b 6549 400b df3f c1fe be0b ca90 ebbf
00000100: d404 87e3 3820 d2bf 1a35 78d9 1108 f03f
00000110: b4e9 8fe3 dd59 e43f bcf8 f2f3 e4f7 f23f
00000120: c97c bbb5 442e db3f 2e90 5575 8927 c23f
00000130: 0ce7 2df0 3a2f ac3f b3b8 6dfb 6b4c ba3f
00000140: 9a7a 3763 47ee c1bf 49f2 85bc 5eac aa3f
00000150: 98ac 6e0a bc35 b0bf 266f 7e28 62f4 9b3f
00000160: 3f4a 39db 5d42 c2bf fa3c 846d 87c2 793f
00000170: 93e8 2c79 ea7c 92bf 6c19 8d0a 3ad1 a33f
00000180: e790 a80d 9658 78bf ff36 fe91 1e85 be3f
00000190: 929e b9c1 79f7 c73f 0c79 37fc 659a b53f
000001a0: 155a 9ff2 5900 babf 8a05 0efa d462 b13f
000001b0: 13bb 9b4b 99ff a03f 09df 939b 6f62 a9bf
000001c0: 34f4 d96b 4ae7 a7bf 0f1e 02cf e409 a03f
000001d0: 6993 eca1 63bf b8bf 7abe c6c1 c028 b33f
000001e0: e73b e5ae 1b78 c13f e992 4086 6ab9 b4bf
000001f0: ac54 a0d0 dfb5 a0bf 0119 ab83 4efe a33f
00000200: 5fc3 3b82 4143 b83f 810d 6bca f99b ae3f
00000210: 4849 8aa4 5e2c 88bf 954f 0bb9 ce6f bcbf
00000220: 8f60 b239 45a0 a23f 03ee 6171 48cf c23f
00000230: e527 9633 874e d7bf 2fc1 5f70 0c04 873f
00000240: 8b55 5de1 f998 bc3f 5815 968c bc02 b8bf
00000250: 1a52 cccd 2e49 c43f 76ce beee 0924 c5bf
00000260: 0db8 c56b a5fd b5bf 1977 aadc 5b6e a4bf
00000270: 070e d680 b36e be3f 1088 3c01 3e4d c0bf
00000280: 341b 6a2c 25e0 abbf d527 fedc 3e76 dd3f
00000290: facc ed02 7600 993f 86a2 84ff 6417 8abf
000002a0: a48e c7ab d13b a53f 804f 6a11 336a 743f
000002b0: 6e93 7e2b 5139 c93f 299c be76 7d70 d73f
000002c0: f8da 2304 7352 e3bf aded bd7e d70b d9bf
000002d0: 2011 1c96 ea1c ed3f 57d5 a8ce 965a fd3f
000002e0: 0559 2aba 31be efbf 63b5 bdb8 3d43 e1bf
000002f0: 2ed1 fa54 b3c4 90bf 89dd 4710 2964 d8bf
00000300: ab76 d8c4 3682 eb3f 8b0c af68 2fe5 f53f
00000310: b377 f634 5e78 fdbf 6525 0ab0 1017 f6bf
00000320: f8ee b599 174b 813f 79a1 0968 7721 afbf
00000330: bc30 7962 99b4 a7bf 2a80 e6d1 cfcd 8c3f
00000340: 8b09 8413 070b 893f 79ee 8840 4cf1 8abf
00000350: 4494 b4ae e0e3 aabf f5aa d7f2 03e4 a5bf
00000360: 3983 952c c45a b53f a5e8 77ef 7024 893f
00000370: 7d81 b044 e919 d63f 5d4c 3558 abbf c73f
00000380: d08c 4a13 41c6 d9bf 2c55 43b3 ca70 cfbf
00000390: 031b 9462 ed7d d63f e8e7 2b7c a97a f5bf
000003a0: 5a8e dd52 ca8f 4d3f a131 5cfa 6f29 d83f
000003b0: 60b2 cb8b 8fd8 b13f 40e4 cd2f aad2 c03f
000003c0: 4840 7b0b 6f69 d63f f506 38b7 7120 5e3f
000003d0: 1f63 94ad e904 c33f be72 a5b3 80dc d33f
000003e0: 3fba 19ec 4b66 d13f 3513 81cb 18d4 e03f
000003f0: 8aeb 98d9 daf8 d33f 9ed4 c193 15c9 8ebf
00000400: e51e bb08 ba76 96bf eab7 ea65 34a3 943f
00000410: da29 0336 67bd 76bf cfc4 5bb5 e4d4 53bf
00000420: 2e73 221a 9828 843f 7a6f 60cf ec88 333f
00000430: 3758 3e92 15e4 783f e7a2 0e5e 1cea 573f
00000440: 2741 8fe1 0577 9c3f 10f5 bc07 82a3 57bf
00000450: 69b1 45a7 f35a 76bf 6420 4fc4 ce18 78bf
00000460: 5465 28fb 16ed 743f 4103 237b 1865 90bf
00000470: 9962 95ec 1ae7 79bf 4a41 271d a1bc 66bf
00000480: 5c3c ff86 b97c 5dbf 6f81 be97 29be d0bf
00000490: b957 a482 6f9d dcbf dd29 712d 9e42 d4bf
000004a0: 861c 7ed3 8f4b d73f b6f1 56ff 328d e13f
000004b0: 619b e1f1 614b d0bf b65b cfab 6c60 bdbf
000004c0: 98fa 3ed7 e090 d1bf aa99 ab04 8555 d03f
000004d0: fa37 091f c2b8 df3f b1bc 1c27 0a39 e0bf
000004e0: 5d76 0193 80cd d3bf bbd4 551c 811a e73f
000004f0: 55d3 7601 ad98 efbf 6699 b8bb 4d73 ccbf
00000500: d7ec 5fa3 f557 f23f c938 840b 195a c6bf
00000510: 8312 388e e178 c23f
-0.19966897131547642 0.031491649179837676 0.081057690085172 0.15901156621153295 -0.08493001949427992 0.01126067178236298 -0.021865293028072108 0.05469458317547556
-0.012687609125622171 -0.07536736319395201 0.12487252916751555 0.16126347078600334 0.2661276337489119 0.14410760255354207 0.2788755849380747 0.19683723506385514
0.2754210274584276 0.3321927773965419 0.4080827650952074 -0.549789343826526 -0.3253295089313256 -0.15355699512293416 -0.5696553879504108 -0.6356828907699299
0.05575416324441206 -0.09512107128003881 0.3231770870163748 -0.1884497832987619 -0.7022820913839818 -0.2713332807381268 0.48506171386219366 -0.8614244679847262
-0.2832166883418499 1.001970147600622 0.635970062692016 1.1855210809003855 0.42469899890234025 0.14183157185755263 0.05504783803821853 0.10272860420602363
-0.1400841936546911 0.05209632922467173 -0.0633199239224943 0.027299436303663736 -0.1426503487042101 0.0062890329502487356 -0.01805464138599484 0.03870564822004749
-0.005943857332145286 0.11921874107630613 0.18723985633117884 0.08438718230852177 -0.10156786130333047 0.0679143057332309 0.033200064162761354 -0.04957913183346647
-0.04668648306412884 0.03132548357922015 -0.09667036727166835 0.07484059077136776 0.13647790946785607 -0.08095422532694453 -0.03263759061534563 0.03904958112029711
0.09477624349143586 0.05978375049519525 -0.011803378483169383 -0.11108104722671748 0.036379016202034646 0.14695077453858127 -0.3641679767393938 0.011238190822013465
0.11170922996583081 -0.09379175598413292 0.15848336266266544 -0.16516231687056732 -0.08590158349190365 -0.03990447109866419 0.11887666602529388 -0.12735724506734458
-0.05444446723145405 0.4603421362049834 0.024415821007505813 -0.012739934013169984 0.041472007960490914 0.004984092220769898 0.19706167815925418 0.36624085041188664
-0.6038146096096559 -0.3913477647508568 0.9097798282460055 1.8346164772641111 -0.99196707115587 -0.5394581421111692 -0.016375352918388923 -0.38111330594934906
0.8596452564849718 1.3684534157953603 -1.841886717687413 -1.3806311489627998 0.008444008234384168 -0.060802203607468415 -0.046299737234762856 0.01406442984881558
0.012228064807008795 -0.013155551642845641 -0.05251981861719249 -0.042755244630674406 0.0834162339065302 0.012276537235255633 0.34533149440724015 0.1855367832855305
-0.402725476111482 -0.24562963250233716 0.3514359915429141 -1.3424467897843844 0.0009021509083421795 0.37752913903457325 0.06971070445042349 0.13142897924606878
0.3501851665614635 0.0018387899880284973 0.14858742690628277 0.31033341926176294 0.2718686872166564 0.5258907293979066 0.3120638966535628 -0.015031975337686906
-0.02193728140153341 0.020153826447021496 -0.005551722686684768 -0.0012104257088448205 0.009843052194179327 0.00029807836051686627 0.006076893103360396 0.0014596249604698576
0.027797786609711352 -0.0014427919222293507 -0.005457832118150521 -0.00588303345006844 0.005108918924201806 -0.01601064921920004 -0.00632391469238116 -0.0027754923587296797
-0.0017997562208511763 -0.26160659617200727 -0.4471091056633401 -0.3165660327692004 0.36398692754341544 0.5484862315275254 -0.25460098859041663 -0.11475257105426703
-0.27446766872518813 0.2552197023018389 0.4956517508588828 -0.5069628490363326 -0.3094178615191135 0.7219853928969749 -0.9873871830555837 -0.22226878801411515
1.146474493200733 -0.17462456762627301 0.14431399769104666
